…
xecution":{"iopub.status.busy":"2022-12-15T23:14:01.320422Z","iopub.execute_input":"2022-12-15T23:14:01.321122Z","iopub.status.idle":"2022-12-15T23:14:04.407171Z","shell.execute_reply.started":"2022-12-15T23:14:01.321083Z","shell.execute_reply":"2022-12-15T23:14:04.406171Z"},"trusted":true},"execution_count":9,"outputs":[{"name":"stdout","text":"Model: \"generator\"\n_________________________________________________________________\nLayer (type)                 Output Shape              Param #   \n=================================================================\nGenerator-Hidden-Layer-1 (De (None, 8192)              819200    \n_________________________________________________________________\nbatch_normalization (BatchNo (None, 8192)              32768     \n_________________________________________________________________\nGenerator-Hidden-Layer-Activ (None, 8192)              0         \n_________________________________________________________________\nGenerator-Hidden-Layer-Resha (None, 8, 8, 128)         0         \n_________________________________________________________________\nGenerator-Hidden-Layer-2 (Co (None, 16, 16, 128)       409600    \n_________________________________________________________________\nbatch_normalization_1 (Batch (None, 16, 16, 128)       512       \n_________________________________________________________________\nGenerator-Hidden-Layer-Activ (None, 16, 16, 128)       0         \n_________________________________________________________________\nGenerator-Hidden-Layer-3 (Co (None, 32, 32, 256)       819200    \n_________________________________________________________________\nbatch_normalization_2 (Batch (None, 32, 32, 256)       1024      \n_________________________________________________________________\nGenerator-Hidden-Layer-Activ (None, 32, 32, 256)       0         \n_________________________________________________________________\nGenerator-Hidden-Layer-4 (Co (None, 64, 64, 512)       3276800   \n_________________________________________________________________\nbatch_normalization_3 (Batch (None, 64, 64, 512)       2048      \n_________________________________________________________________\nGenerator-Hidden-Layer-Activ (None, 64, 64, 512)       0         \n_________________________________________________________________\nGenerator-Hidden-Layer-5 (Co (None, 128, 128, 1024)    13107200  \n_________________________________________________________________\nbatch_normalization_4 (Batch (None, 128, 128, 1024)    4096      \n_________________________________________________________________\nGenerator-Hidden-Layer-Activ (None, 128, 128, 1024)    0         \n_________________________________________________________________\nGenerator-Output-Layer (Conv (None, 128, 128, 3)       76800     \n=================================================================\nTotal params: 18,549,248\nTrainable params: 18,529,024\nNon-trainable params: 20,224\n_________________________________________________________________\n","output_type":"stream"}]},{"cell_type":"code","source":"\ndef discriminator(in_shape=(image_size,image_size,3)):\n    model = Sequential(name=\"Discriminator\") # Model\n 
…
ion":{"iopub.status.busy":"2022-12-15T23:14:04.408841Z","iopub.execute_input":"2022-12-15T23:14:04.409208Z","iopub.status.idle":"2022-12-15T23:14:04.661904Z","shell.execute_reply.started":"2022-12-15T23:14:04.409171Z","shell.execute_reply":"2022-12-15T23:14:04.660876Z"},"trusted":true},"execution_count":10,"outputs":[{"name":"stdout","text":"Model: \"Discriminator\"\n_________________________________________________________________\nLayer (type)                 Output Shape              Param #   \n=================================================================\nDiscriminator-Hidden-Layer-0 (None, 64, 64, 32)        2432      \n_________________________________________________________________\nDiscriminator-Hidden-Layer-A (None, 64, 64, 32)        0         \n_________________________________________________________________\nDiscriminator-Hidden-Layer-1 (None, 32, 32, 64)        51264     \n_________________________________________________________________\nDiscriminator-Hidden-Layer-A (None, 32, 32, 64)        0         \n_________________________________________________________________\nDiscriminator-Hidden-Layer-2 (None, 16, 16, 128)       204928    \n_________________________________________________________________\nDiscriminator-Hidden-Layer-A (None, 16, 16, 128)       0         \n_________________________________________________________________\nDiscriminator-Hidden-Layer-3 (None, 8, 8, 256)         819456    \n_________________________________________________________________\nDiscriminator-Hidden-Layer-A (None, 8, 8, 256)         0         \n_________________________________________________________________\nDiscriminator-Flatten-Layer  (None, 16384)             0         \n_________________________________________________________________\nDiscriminator-Flatten-Layer- (None, 16384)             0         \n_________________________________________________________________\nDiscriminator-Output-Layer ( (None, 1)                 16385     \n=================================================================\nTotal params: 1,094,465\nTrainable params: 1,094,465\nNon-trainable params: 0\n_________________________________________________________________\n","output_type":"stream"}]},{"cell_type":"code","source":"def def_gan(generator, discriminator):\n    \n    # don't train the weights of discriminator at this stage.\n    discrimin
…
