…
ecution":{"iopub.status.busy":"2022-12-17T02:38:48.137590Z","iopub.execute_input":"2022-12-17T02:38:48.137893Z","iopub.status.idle":"2022-12-17T02:38:51.251845Z","shell.execute_reply.started":"2022-12-17T02:38:48.137863Z","shell.execute_reply":"2022-12-17T02:38:51.250833Z"},"trusted":true},"execution_count":10,"outputs":[{"name":"stdout","text":"Model: \"generator\"\n_________________________________________________________________\nLayer (type)                 Output Shape              Param #   \n=================================================================\nGenerator-Hidden-Layer-1 (De (None, 8192)              827392    \n_________________________________________________________________\nGenerator-Hidden-Layer-Activ (None, 8192)              0         \n_________________________________________________________________\nGenerator-Hidden-Layer-Resha (None, 8, 8, 128)         0         \n_________________________________________________________________\nGenerator-Hidden-Layer-2 (Co (None, 16, 16, 128)       409728    \n_________________________________________________________________\nGenerator-Hidden-Layer-Activ (None, 16, 16, 128)       0         \n_________________________________________________________________\nGenerator-Hidden-Layer-3 (Co (None, 32, 32, 256)       819456    \n_________________________________________________________________\nGenerator-Hidden-Layer-Activ (None, 32, 32, 256)       0         \n_________________________________________________________________\nGenerator-Hidden-Layer-4 (Co (None, 64, 64, 512)       3277312   \n_________________________________________________________________\nGenerator-Hidden-Layer-Activ (None, 64, 64, 512)       0         \n_________________________________________________________________\nGenerator-Hidden-Layer-5 (Co (None, 128, 128, 1024)    13108224  \n_________________________________________________________________\nGenerator-Hidden-Layer-Activ (None, 128, 128, 1024)    0         \n_________________________________________________________________\nGenerator-Hidden-Layer-6 (Co (None, 256, 256, 2048)    52430848  \n_________________________________________________________________\nGenerator-Hidden-Layer-Activ (None, 256, 256, 2048)    0         \n_________________________________________________________________\nGenerator-Output-Layer (Conv (None, 256, 256, 3)       153603    \n=================================================================\nTotal params: 71,026,563\nTrainable params: 71,026,563\nNon-trainable params: 0\n_________________________________________________________________\n","output_type":"stream"}]},{"cell_type":"code","source":"\ndef discriminator(in_shape=(image_size,image_size,3)):\n    model = Sequential(name=\"Discriminator\") # Model\n    \n 
…
ion":{"iopub.status.busy":"2022-12-17T02:38:51.253525Z","iopub.execute_input":"2022-12-17T02:38:51.253979Z","iopub.status.idle":"2022-12-17T02:38:51.349794Z","shell.execute_reply.started":"2022-12-17T02:38:51.253943Z","shell.execute_reply":"2022-12-17T02:38:51.348794Z"},"trusted":true},"execution_count":11,"outputs":[{"name":"stdout","text":"Model: \"Discriminator\"\n_________________________________________________________________\nLayer (type)                 Output Shape              Param #   \n=================================================================\nDiscriminator-Hidden-Layer-1 (None, 128, 128, 32)      2432      \n_________________________________________________________________\nDiscriminator-Hidden-Layer-A (None, 128, 128, 32)      0         \n_________________________________________________________________\nDiscriminator-Hidden-Layer-2 (None, 64, 64, 32)        25632     \n_________________________________________________________________\nDiscriminator-Hidden-Layer-A (None, 64, 64, 32)        0         \n_________________________________________________________________\nDiscriminator-Hidden-Layer-3 (None, 32, 32, 64)        51264     \n_________________________________________________________________\nDiscriminator-Hidden-Layer-A (None, 32, 32, 64)        0         \n_________________________________________________________________\nDiscriminator-Hidden-Layer-D (None, 32, 32, 64)        0         \n_________________________________________________________________\nDiscriminator-Hidden-Layer-4 (None, 16, 16, 64)        102464    \n_________________________________________________________________\nDiscriminator-Hidden-Layer-A (None, 16, 16, 64)        0         \n_________________________________________________________________\nDiscriminator-Hidden-Layer-5 (None, 8, 8, 128)         204928    \n_________________________________________________________________\nDiscriminator-Hidden-Layer-A (None, 8, 8, 128)         0         \n_________________________________________________________________\nDiscriminator-Hidden-Layer-6 (None, 4, 4, 128)         409728    \n_________________________________________________________________\nDiscriminator-Hidden-Layer-A (None, 4, 4, 128)         0         \n_________________________________________________________________\nDiscriminator-Flatten-Layer  (None, 2048)              0         \n_________________________________________________________________\nDiscriminator-Flatten-Layer- (None, 2048)              0         \n_________________________________________________________________\nDiscriminator-Output-Layer ( (None, 1)                 2049      \n=================================================================\nTotal params: 798,497\nTrainable params: 798,497\nNon-trainable params: 0\n_________________________________________________________________\n","output_type":"stream"}]},{"cell_type":"code","source":"def def_gan(generator, discriminator):\n    \n    # don't train the weights of discriminator at this stage.\n    discriminato
…
